rofl-oracle/model.tflite (tflite, 91332 bytes, 6 tensors)

arith.constant3 f4 [1, 32]
0.17290777 0.13067737 0.38824242 0.20192307 0.24200422 0.30740476 0.3426694 0.27228948
-0.04928155 0.028189749 0.1239839 0.07376451 0.28479338 0.27481863 -0.21149263 0.20766135
0.4165069 -0.095033675 -0.42342684 -0.21090937 -0.040921796 -0.3285789 -0.30791235 -0.22402713
0.18499878 0.101646245 -0.21452716 0.028565 -0.07828984 -0.22002809 0.10527075 0.18009442
00000000: bc0e 313e 4ad0 053e b6c7 c63e ecc4 4e3e
00000010: f4cf 773e 2864 9d3e 5d72 af3e 8769 8b3e
00000020: 73db 49bd 30ee e63c 45eb fd3d d911 973d
00000030: 70d0 913e 07b5 8c3e 8691 58be 2da5 543e
00000040: 6440 d53e 04a1 c2bd 67cb d8be a0f8 57be
00000050: 9d9d 27bd 7e3b a8be b0a6 9dbe 5e67 65be
00000060: 5270 3d3e e82b d03d 02ad 5bbe 2601 ea3c
00000070: 6c56 a0bd 0b4f 61be 3198 d73d ac6a 383e

arith.constant4 f4 [32, 64]
-0.17187923 -0.04159838 0.097236454 -0.015763044 0.2455619 0.20897913 0.04493791 -0.21691298
0.19859964 -0.21473843 0.16822237 -0.13929176 0.17376286 -0.07958132 -0.19402665 -0.06294584
0.20061028 -0.12683463 0.13884473 0.23904228 0.13205189 -0.040221274 -0.039352298 -0.19182813
-0.072646976 -0.15642995 0.22977692 0.060866237 -0.19578373 0.01525414 -0.20299757 0.15773588
0.20476454 0.01715219 -0.20244437 -2.1576881e-05 0.08163667 -0.1332972 0.13500762 0.02197367
0.14812213 -0.16589904 -0.05621195 -0.1557445 0.0056440234 0.24163973 0.10425073 0.034746587
0.026558518 -0.18477958 0.16388303 0.12807 0.093104005 -0.24072134 -0.14085168 -0.08335614
0.049815893 -0.0706417 -0.17345846 -0.17677212 -0.053507864 0.056307912 0.041147113 0.01534754
-0.1570769 -0.12787491 -0.11370892 -0.22584748 -0.13382477 -0.17212254 -0.057344317 -0.24532902
-0.22344708 -0.17264193 0.0918023 0.2722071 0.15820348 -0.09280002 0.14256614 -0.00067704916
-0.09859669 -0.18083328 -0.028819978 -0.18413055 0.16275859 0.20459384 0.07408577 -0.0320248
0.092870355 0.20321241 0.14990127 0.23102613 0.124518216 -0.16021353 0.04534942 0.03585525
0.03622102 0.13694137 0.12746274 0.1606956 0.070096835 -0.17189288 -0.1588377 -0.07696581
-0.20802003 -0.15449962 0.049142435 0.038796246 0.030477762 0.088706665 -0.17565352 0.17531407
-0.11466241 -0.051046293 0.16853344 -0.23816246 -0.0075072646 0.007115574 0.22721648 0.049644053
-0.0033125877 -0.15442033 0.21127921 -0.03449452 -0.0007587671 0.009772778 -0.20193589 0.073646545
0.015663505 0.00515002 0.0009856652 0.20053321 0.22361761 0.0325101 0.07338482 -0.20993388
-0.08112466 -0.15556347 -0.20422101 -0.032011576 -0.17377394 0.08262259 0.053712785 -0.13479245
0.061265826 -0.018001676 0.06768477 -0.079066515 0.007082522 -0.17947567 -0.22195071 0.07840371
-0.15340686 0.16425876 0.050286174 -0.14201878 -0.04144579 0.2223965 -0.1614117 0.11424218
0.16729844 0.055916976 -0.23868513 0.17896749 -0.0765102 0.10748953 0.10275408 0.09852332
0.14613938 -0.045803435 -0.03359568 0.049048483 0.0037850142 0.015918395 0.12469494 -0.1590823
-0.08493978 0.22222829 0.20135897 -0.15856653 -0.19274527 -0.17733294 -0.2042703 -0.07257271
0.050880253 -0.21028596 -0.1823222 -0.15834588 -0.15488702 -0.20881939 -0.0845654 0.12556773
-0.18627381 -0.17751223 0.028203009 0.12960994 0.07901877 0.16235656 -0.0813961 -0.13483924
-0.200337 0.066960335 -0.20216966 -0.09586945 0.19462377 0.035037994 -0.13412166 -0.18860865
0.04730183 0.15849799 0.13716179 0.17864794 0.02781856 -0.04020351 -0.06540322 0.22541618
0.012820184 -0.113685936 -0.17365986 -0.003265202 0.24746883 0.10425186 -0.043201506 -0.181207
-0.15216672 0.1110194 -0.02505672 0.005024314 -0.1778077 0.16016 -0.21754158 0.06370592
0.18610269 0.026736692 -0.06290897 -0.22992522 -0.19138497 0.009480471 -0.19793308 -0.13656574
0.025186896 -0.035098195 0.026919127 -0.21676189 0.049712718 -0.19954771 -0.23608273 0.20918554
0.05792743 0.06615482 0.036554158 -0.23364782 0.09630597 -0.044793308 -0.227166 -0.028562725
00000000: 1c01 30be 1063 2abd e823 c73d 8021 81bc
00000010: 9474 7b3e a0fe 553e d010 383d 701e 5ebe
00000020: b45d 4b3e 64e4 5bbe 7c42 2c3e 80a2 0ebe
00000030: e4ee 313e 88fb a2bd ecae 46be c0e9 80bd
00000040: c86c 4d3e f0e0 01be 502d 0e3e 80c7 743e
00000050: 9c38 073e 10bf 24bd e02f 21bd 986e 44be
00000060: f0c7 94bd 2c2f 20be a44a 6b3e e04e 793d
00000070: 887b 48be 80ec 793c 98de 4fbe 8485 213e
00000080: ccad 513e c082 8c3c 944d 4fbe 0000 b5b7
00000090: 2031 a73d 107f 08be 703f 0a3e 2002 b43c
000000a0: 54ad 173e 70e1 29be 803e 66bd 7c7b 1fbe
000000b0: 80f1 b83b 6870 773e 6881 d53d 7052 0e3d
000000c0: 4091 d93c dc36 3dbe f4d0 273e c824 033e
000000d0: 50ad be3d a87f 76be 6c3b 10be a0b6 aabd
000000e0: c00b 4c3d 98ac 90bd 189f 31be c003 35be
000000f0: 102b 5bbd 20a3 663d e089 283d 4074 7b3c
00000100: c4d8 20be a4f1 02be 39e0 e8bd 9044 67be
00000110: 5c09 09be e440 30be e0e1 6abd 8837 7bbe
00000120: 50cf 64be 0cc9 30be d802 bc3d bb5e 8b3e
00000130: 1800 223e f00d bebd dcfc 113e 007c 31ba
00000140: 10ed c9bd 5c2c 39be e017 ecbc b88c 3cbe
00000150: 30aa 263e 0c81 513e 48ba 973d 702c 03bd
00000160: d032 be3d ea16 503e b87f 193e 1d92 6c3e
00000170: 6803 ff3d 040f 24be 50c0 393d f4dc 123d
00000180: 7e5c 143d 5c3a 0c3e 9885 023e 638d 243e
00000190: ee8e 8f3d b004 30be 5aa6 22be 40a0 9dbd
000001a0: 3403 55be 2635 1ebe 9449 493d d0e8 1e3d
000001b0: 80ac f93c d7ab b53d 84de 33be 8885 333e
000001c0: 20d4 eabd eb15 51bd 0894 2c3e dce0 73be
000001d0: 80ff f5bb c329 e93b 70ab 683e 9057 4b3d
000001e0: 0018 59bb 5d20 1ebe 9459 583e 204a 0dbd
000001f0: 00e8 46ba 001e 203c 48c8 4ebe 00d4 963d
00000200: c050 803c 80c1 a83b 7031 813a 9458 4d3e
00000210: 04fc 643e 5029 053d c84a 963d e8f8 56be
00000220: b024 a6bd 084c 1fbe 501f 51be 921e 03bd
00000230: ccf1 31be 0836 a93d f001 5c3d 0807 0abe
00000240: e0f1 7a3d 4078 93bc 509e 8a3d a0ed a1bd
00000250: 8014 e83b 78c8 37be 0c47 63be 2092 a03d
00000260: b016 1dbe 7333 283e e0f8 4d3d 5f6d 11be
00000270: 10c3 29bd e8bb 633e 1c49 25be cef7 e93d
00000280: 4850 2b3e 3309 653d e069 74be 4143 373e
00000290: 61b1 9cbd 7923 dc3d bb70 d23d 98c6 c93d
000002a0: 90a5 153e 629c 3bbd a09b 09bd 10e7 483d
000002b0: 000e 783b 4b67 823c 1060 ff3d 78e6 22be
000002c0: e8f4 adbd d08f 633e 0c31 4e3e 445f 22be
000002d0: 045f 45be c496 35be 3c2c 51be 00a1 94bd
000002e0: d067 503d 3455 57be acb2 3abe 6c25 22be
000002f0: b49a 1ebe c0d4 55be a030 adbd d494 003e
00000300: 90be 3ebe c4c5 35be ff09 e73c 78b8 043e
00000310: 98d4 a13d cc40 263e 00b3 a6bd 4c13 0abe
00000320: 2425 4dbe 8022 893d 9005 4fbe 3457 c4bd
00000330: 744b 473e 0084 0f3d 3057 09be a022 41be
00000340: 90bf 413d 4c4d 223e 2474 0c3e 7cef 363e
00000350: c0e3 e33c 70ac 24bd 20f2 85bd 80d3 663e
00000360: c00b 523c 2cd4 e8bd e4d3 31be 00fd 55bb
00000370: 7868 7d3e 0082 d53d 10f4 30bd 548e 39be
00000380: 98d1 1bbe 245e e33d c043 cdbc 00a3 a43b
00000390: 3913 36be fc00 243e 38c3 5ebe 4078 823d
000003a0: b491 3e3e e806 db3c 6bd6 80bd 8471 6bbe
000003b0: 6cfa 43be fa53 1b3c f8ae 4abe e4d7 0bbe
000003c0: c054 ce3c 20c3 0fbd 8085 dc3c d4f6 5dbe
000003d0: 909f 4b3d 3c56 4cbe acbf 71be bc34 563e
000003e0: 5045 6d3d 2e7c 873d d0b9 153d 6041 6fbe
000003f0: 103c c53d 3079 37bd 349e 68be 60fc e9bc

arith.constant5 f4 [32]
0.0 0.018441264 0.0059480323 -0.032605678 -0.029168522 0.015292243 -0.036876358 -0.021108843
0.015029034 0.0 -0.03720223 -0.0051229284 -0.017155016 -0.017107692 0.016464956 -0.03881731
0.0 0.0 0.03438349 0.016469505 0.0006483038 0.0 0.016677037 -0.041109838
-0.01720074 0.0 0.036810063 -0.018290378 0.0 0.0122230165 -0.020470463 -0.031336695
00000000: 0000 0000 2212 973c b6e7 c23b 888d 05bd
00000010: d3f2 eebc 518c 7a3c aa0b 17bd 74ec acbc
00000020: 563c 763c 0000 0000 5e61 18bd 3dde a7bb
00000030: ad88 8cbc 6e25 8cbc 84e1 863c e6fe 1ebd
00000040: 0000 0000 0000 0000 b4d5 0c3d 0eeb 863c
00000050: eef2 293a 0000 0000 489e 883c ca62 28bd
00000060: 91e8 8cbc 0000 0000 26c6 163d b4d5 95bc
00000070: 0000 0000 0c43 483c acb1 a7bc e85a 00bd

arith.constant19 f4 [256, 5]
-0.06802914 0.12626168 -0.13351327 -0.0025146306 0.12047294 0.14543796 -0.03404159 0.054630622
-0.05858177 -0.14601284 0.08543807 -0.0044841617 0.13736323 0.05608456 0.02020201 -0.027177818
-0.13587043 0.13595426 0.0038603395 -0.12961033 0.10576156 0.1405175 0.07845001 0.079413235
-0.100566186 0.07545088 -0.04127735 -0.00884828 -0.13944939 0.043669537 0.032577276 -0.021577269
0.048206523 -0.06385691 -0.011050656 -0.10838665 -0.11493713 -0.006023675 -0.04521013 0.0042821616
0.1417228 0.07549809 -0.12175828 -0.025313646 -0.05124162 -0.103430375 0.11537588 -0.077728845
0.03007251 -0.05274447 -0.07807374 -0.07060837 0.013752177 -0.056121975 0.14529127 -0.02694469
0.0026818514 0.14457574 0.05038427 0.019629478 -0.01628986 -0.14963792 0.11416015 0.12498891
-0.02385436 0.047312453 0.1342147 -0.050155163 -0.05515492 0.0023343116 0.14104417 -0.1429665
0.030938715 0.07035482 -0.00855124 -0.021233022 0.11381212 -0.051726125 0.072145745 0.068819836
0.011451691 0.02829279 -0.08434153 0.022267774 -0.15043555 0.087559626 0.07771811 -0.05573927
0.11222273 -0.0073166937 -0.12439372 0.001710996 0.12739989 0.063385814 0.04424098 -0.046318136
0.12774932 -0.10501178 0.019314632 0.011734992 -0.010717899 -0.12047236 0.038261145 0.042184427
0.062839925 -0.084451064 -0.02874498 -0.046690434 -0.024828851 0.052354425 -0.07150378 -0.13427633
-0.10165264 0.008084133 0.11827171 0.07120381 -0.1436849 -0.1212223 0.03631106 0.00011101365
0.08879736 0.047060847 -0.100465946 0.082445696 0.11295995 -0.0007931143 0.14688677 -0.13930157
-0.062252186 0.048484504 0.06641893 -0.037071384 0.11368108 -0.061876237 0.07357049 0.008121684
0.048043698 0.13097641 0.055425525 0.13657314 -0.14480782 0.08742109 0.14920703 -0.019924387
0.068530604 -0.085661076 0.102238655 -0.115023375 0.101908326 -0.02264148 0.09722397 -0.07194946
0.08948411 -0.09790624 -0.017897189 -0.029683948 -0.0818042 0.073473826 -0.08879884 0.11112434
-0.11001974 0.09776294 0.062421143 0.1156508 0.07216531 0.05187419 0.074527934 -0.106342606
0.03966543 0.022300452 0.09742282 0.048798278 0.093180165 -0.035462752 0.010349795 0.058027282
0.04101321 0.10441741 0.13317096 -0.13520457 0.11886817 0.11296132 -0.14444025 -0.124486476
0.10080257 0.028809369 0.11556283 -0.023642734 0.11643341 -0.07926832 0.06872173 -0.12921697
-0.021350607 0.10335034 -0.010254592 -0.06389017 -0.09743764 -0.14090066 0.13907784 0.070378825
-0.1365595 0.006713912 0.13905975 -0.010367081 0.12494153 -0.1396348 0.1347678 -0.05535891
-0.012744129 0.07552007 0.029854357 0.06612052 0.08361219 -0.021626607 0.09861937 0.06875342
-0.011016965 0.09227337 -0.011213332 -0.054652087 -0.0075407773 -0.0462133 0.029228657 -0.10441381
0.09189138 0.11883789 0.13633227 -0.022942677 -0.13436168 -0.017020509 0.080255106 0.0008985549
-0.007236734 0.14027423 -0.10941823 -0.13686839 0.0039610863 -0.13680665 0.0812016 -0.09607168
-0.009824917 0.05347906 0.0642432 0.09072706 -0.10957067 0.022180587 -0.056567118 -0.08444828
0.008511379 0.03265807 -0.055164754 -0.08286854 0.10127634 -0.04073464 0.12673172 0.08220939
00000000: dd52 8bbd be4a 013e b4b7 08be 80cc 24bb
00000010: 84ba f63d b0ed 143e 326f 0bbd 5cc4 5f3d
00000020: 70f3 6fbd 6484 15be 28fa ae3d e0ef 92bb
00000030: f2a8 0c3e ecb8 653d b07e a53c 04a4 debc
00000040: 9e21 0bbe 9837 0b3e c0fd 7c3b 92b8 04be
00000050: 8499 d83d d2e3 0f3e 66aa a03d 68a3 a23d
00000060: a5f5 cdbd fe85 9a3d 7012 29bd 60f8 10bc
00000070: d2cb 0ebe d4de 323d c06f 053d d0c2 b0bc
00000080: 3474 453d 69c7 82bd d00d 35bc d2f9 ddbd
00000090: 2864 ebbd 4062 c5bb 422e 39bd 6051 8c3b
000000a0: c81f 113e be9e 9a3d 685c f9bd 905e cfbc
000000b0: bce2 51bd 4ed3 d3bd 304a ec3d 4d30 9fbd
000000c0: a05a f63c 960a 58bd 20e5 9fbd 1f9b 90bd
000000d0: d050 613c 28e0 65bd 3cc7 143e 1cbb dcbc
000000e0: 00c2 2f3b aa0b 143e bc5f 4e3d 00ce a03c
000000f0: 5072 85bc af3a 19be cccc e93d 30fa ff3d
00000100: 386a c3bc b4ca 413d 946f 093e 806f 4dbd
00000110: 20ea 61bd 40fb 183b e26d 103e cf65 12be
00000120: 3073 fd3c 3016 903d 801a 0cbc e0f0 adbc
00000130: 5416 e93d c6de 53bd 26c1 933d 6af1 8c3d
00000140: e09f 3b3c 48c6 e73c 41bb acbd e86a b63c
00000150: c70b 1abe 7652 b33d ac2a 9f3d dc4e 64bd
00000160: 08d5 e53d e0c0 efbb 22c2 febd 8043 e03a
00000170: 1e75 023e 6cd0 813d 0836 353d 16b8 3dbd
00000180: b8d0 023e 6b10 d7bd b839 9e3c 2044 403c
00000190: 209a 2fbc 36ba f6bd b8b7 1c3d 94c9 2c3d
000001a0: 38b2 803d aef4 acbd 987a ebbc 783e 3fbd
000001b0: e065 cbbc 9871 563d 9370 92bd bc7f 09be
000001c0: 422f d0bd 5073 043c 7038 f23d 4ed3 913d
000001d0: 2222 13be 6643 f8bd e8ba 143d 00d0 e838
000001e0: 64db b53d e0c2 403d 17c1 cdbd 4ad9 a83d
000001f0: 8c57 e73d 00e9 4fba 7c69 163e 12a5 0ebe
00000200: 26fc 7ebd b097 463d a606 883d 2ad8 17bd
00000210: a0d1 e83d f071 7dbd 20ac 963d d010 053c
00000220: 78c9 443d ae1e 063e e005 633d d4d9 0b3e
00000230: 8048 14be d409 b33d bac9 183e 7838 a3bc
00000240: c659 8c3d 136f afbd 8062 d13d 6091 ebbd
00000250: 50b5 d03d a07a b9bc 5c1d c73d 3d5a 93bd
00000260: 7243 b73d 1183 c8bd 209d 92bc c02b f3bc
00000270: f688 a7bd 7279 963d 2bdc b5bd 2895 e33d
00000280: 0852 e1bd f037 c83d 50ad 7f3d 54da ec3d
00000290: 68cb 933d 087a 543d 1aa2 983d 27ca d9bd
000002a0: 3878 223d 70af b63c 9e85 c73d b4e0 473d
000002b0: 3ed5 be3d 6441 11bd 3092 293c 04ae 6d3d
000002c0: 78fd 273d ccd8 d53d f85d 083e 1173 0abe
000002d0: 2871 f33d 4458 e73d 25e8 13be c4f2 febd
000002e0: 9471 ce3d a001 ec3c 34ac ec3d 68ae c1bc
000002f0: a474 ee3d 6e57 a2bd fabd 8c3d 7451 04be
00000300: 78e7 aebc 58a9 d33d e002 28bc d9d8 82bd
00000310: 638d c7bd 4348 10be 6c6a 0e3e c622 903d
00000320: 41d6 0bbe 6000 dc3b ae65 0e3e b0da 29bc
00000330: 58e1 ff3d 6dfc 0ebe 9200 0a3e 06c0 62bd
00000340: c0cc 50bc 44aa 9a3d 2091 f43c 326a 873d
00000350: de3c ab3d 482a b1bc f4f8 c93d 98ce 8c3d
00000360: 8080 34bc d2f9 bc3d 20b8 37bc deda 5fbd
00000370: a018 f7bb 284a 3dbd f070 ef3c e8d6 d5bd
00000380: 8c31 bc3d 4861 f33d b09a 0b3e 48f2 bbbc
00000390: 1c96 09be 986e 8bbc ca5c a43d 008d 6b3a
000003a0: 2022 edbb 0ca4 0f3e aa16 e0bd 3a27 0cbe
000003b0: 00cc 813b 0b17 0cbe 064d a63d 3bc1 c4bd
000003c0: b0f8 20bc dc0c 5b3d f091 833d 1ccf b93d
000003d0: 9666 e0bd 10b4 b53c ecb2 67bd 38f3 acbd
000003e0: 5073 0b3c 78c4 053d 70f4 61bd fbb6 a9bd
000003f0: f869 cf3d 5ed9 26bd f6c5 013e 665d a83d

arith.constant20 f4 [256, 64]
-0.017626762 -0.1337184 0.14116283 0.0022886284 0.04664567 -0.018671894 -0.07573151 0.022399105
0.0731727 0.027948905 0.03401676 -0.007912251 -0.010292289 0.00063994527 0.010148846 -0.021239195
0.08713391 -0.011150964 -0.069054104 0.085121885 -0.035072528 -0.063124456 -0.027303621 0.14841953
0.059265167 -0.010838136 -0.041001 -0.05114131 -0.09627202 0.082463145 0.030578896 -0.0007686317
-0.078155346 0.053074405 -0.077432975 0.048575956 -0.12987715 0.104678765 -0.010893783 -0.06371716
-0.083678074 -0.026391065 0.07988991 -0.06442125 0.049534008 -0.019745328 0.104129866 0.027648732
-0.012345472 0.15445009 -0.006754917 0.06841605 -0.12772362 -0.09905445 -0.051062096 0.11074619
0.09360217 -0.042927682 0.10609913 0.05168464 0.03466099 0.011476609 -0.013431176 -0.10645745
0.08374941 -0.032741547 0.11600529 0.00465225 0.0006122154 0.08161064 0.03951263 -0.04996204
-0.004470439 -0.011129612 0.10535119 -0.061603937 0.093888596 0.08523869 -0.035255328 0.041144513
-0.03828749 -0.07316594 6.51055e-05 0.043677323 0.07078267 -0.002717054 -0.014317626 -0.036221758
0.019323474 -0.00536862 0.031420063 0.034839455 -0.040660262 0.085405044 -0.039279133 0.030909536
0.03930532 0.0019540312 0.027731754 -0.036195207 -0.010495454 0.04513586 0.044472437 -0.053747993
-0.014160551 -0.074889325 0.12276442 -0.054340117 0.10146785 -0.1127186 0.017129127 -0.11126562
0.04700479 -0.0035672802 0.02940286 0.006427238 0.07629637 0.0060611703 0.03874794 -0.05506526
0.10046203 0.07537093 -0.019221444 -0.038281366 -0.08769885 0.06762147 0.0541428 0.027324792
0.010019949 0.064713456 0.07693362 -0.0794149 -0.08557136 0.0743454 0.05975421 0.08438307
0.032487996 0.10089455 -0.087519 -0.07158569 0.0092168925 -0.097965196 -0.00800363 0.07971953
0.03457662 0.01100745 -0.03860495 0.006511186 0.032926127 -0.060387827 0.01376478 -0.054603994
0.06668753 0.05523508 0.028115882 -0.077220544 -0.049712874 0.05921699 0.014252229 0.010493177
0.10377216 0.03782643 0.013187872 -0.057280134 -0.023600813 -0.035347097 -0.117311016 0.05160762
0.084456004 -0.02174336 -0.03523889 -0.069404 -0.022075456 -0.16823396 0.035636805 -0.02606174
0.089226626 -0.08997272 0.083851345 0.089932404 -0.0020350565 0.15454406 0.09069817 0.040704418
-0.042211067 0.0479356 -0.03427642 0.073674686 0.014708072 0.048164777 0.07989165 0.034976937
0.024348317 0.040268824 -0.026477292 -0.04373288 0.14176734 -0.0009896685 0.0025266444 0.12939969
0.06876611 -0.06922451 -0.042675685 0.039901555 0.061336957 -0.031890158 -0.07369345 -0.06695009
-0.047300614 -0.026339032 -0.04745857 0.050723605 -0.013159752 0.05452172 -0.036960956 -0.056532055
0.011743292 0.044528417 -0.0076535055 -0.049701475 0.0020933622 -0.042070687 0.14847218 -0.08725618
-0.013331612 -0.055462815 -0.09655421 -0.04710215 0.09513767 0.09880743 0.09510414 0.039603174
0.04207522 -0.019048853 0.03204688 -0.104837686 0.027783828 -0.087438226 -0.031128444 -0.023581099
-0.0020296741 0.109880455 -0.023018094 -0.11069104 -0.011322215 -0.041150734 -0.047173508 0.09467599
-0.09359354 0.09642898 0.100326024 -0.025456367 -0.0055891536 0.00029906724 0.03198648 -0.050777003
00000000: 0066 90bc 7aed 08be fd8c 103e d0fc 153b
00000010: 880f 3f3d cdf5 98bc 1f19 9bbd 547e b73c
00000020: 92db 953d 1af5 e43c 2855 0b3d 63a2 01bc
00000030: fda0 28bc 00c2 273a 5847 263c d2fd adbc
00000040: 4373 b23d 88b2 36bc 3d6c 8dbd 6254 ae3d
00000050: 36a8 0fbd 6547 81bd d8ab dfbc 4afb 173e
00000060: 08c0 723d 7092 31bc aaf0 27bd 8d79 51bd
00000070: 442a c5bd 70e2 a83d 9880 fa3c 007e 49ba
00000080: e90f a0bd 8c64 593d 2e95 9ebd 95f7 463d
00000090: 84fe 04be d261 d63d d67b 32bc 247e 82bd
000000a0: 695f abbd 1332 d8bc 529d a33d 4aef 83bd
000000b0: 2ce4 4a3d f4c0 a1bc 0a42 d53d 987f e23c
000000c0: aa44 4abc 2a28 1e3e 5a58 ddbb b71d 8c3d
000000d0: fbc9 02be 0fdd cabd 7d26 51bd e6ce e23d
000000e0: 7fb2 bf3d f0d4 2fbd 804a d93d 46b3 533d
000000f0: aff8 0d3d 6308 3c3c 6f0e 5cbc 5d06 dabd
00000100: d084 ab3d 001c 06bd 2e94 ed3d e771 983b
00000110: 147d 203a 7b23 a73d ffd7 213d ffa4 4cbd
00000120: c37c 92bb fa58 36bc 5dc2 d73d 6954 7cbd
00000130: aa48 c03d 9f91 ae3d e467 10bd 2687 283d
00000140: 58d3 1cbd 06d8 95bd 4089 8838 fee6 323d
00000150: 81f6 903d 9a10 32bb 7a94 6abc 445d 14bd
00000160: 434c 9e3c 40eb afbb 53b2 003d d1b3 0e3d
00000170: 608b 26bd d7e8 ae3d 28e3 20bd ff35 fd3c
00000180: 9dfe 203d 340f 003b b42d e33c 6d41 14bd
00000190: 20f5 2bbc 61e0 383d bb28 363d db26 5cbd
000001a0: a801 68bc 935f 99bd ea6b fb3d be93 5ebd
000001b0: 60ce cf3d 02d9 e6bd 6252 8c3c 3bdf e3bd
000001c0: 1888 403d 08c9 69bb 44de f03c 959b d23b
000001d0: 4541 9c3d c89c c63b 29b6 1e3d 1c8c 61bd
000001e0: 09bf cd3d 135c 9a3d 4a76 9dbc eccc 1cbd
000001f0: 749b b3bd 207d 8a3d d7c4 5d3d 3ed8 df3c
00000200: b62a 243c 7d88 843d 608f 9d3d 47a4 a2bd
00000210: 0a40 afbd 6742 983d d5c0 743d 08d1 ac3d
00000220: 2212 053d cda1 ce3d 293d b3bd 859b 92bd
00000230: 7302 173c faa1 c8bd a821 03bc fe43 a33d
00000240: 37a0 0d3d 9758 343c 3920 1ebd c95b d53b
00000250: 8cdd 063d 3a59 77bd ac85 613c 70a8 5fbd
00000260: 7993 883d 2e3e 623d 4753 e63c ce25 9ebd
00000270: ba9f 4bbd 848d 723d 2e82 693c 93eb 2b3c
00000280: 8086 d43d e3ef 1a3d f211 583c 939e 6abd
00000290: 7e56 c1bc 1ec8 10bd c240 f0bd 8362 533d
000002a0: 45f7 ac3d 221f b2bc a856 10bd af23 8ebd
000002b0: 96d7 b4bc 8645 2cbe e6f7 113d 6e7f d5bc
000002c0: 73bc b63d 9e43 b8bd 41ba ab3d 7b2e b83d
000002d0: 955e 05bb cc40 1e3e f6bf b93d adb9 263d
000002e0: 83e5 2cbd 1f58 443d 6e65 0cbd c1e2 963d
000002f0: 20fa 703c 6e48 453d 3c9e a33d fa43 0f3d
00000300: 1f76 c73c ecf0 243d e8e6 d8bc 4021 33bd
00000310: 752b 113e c4b7 81ba 0f96 253b 5a81 043e
00000320: 3fd5 8c3d 94c5 8dbd b3cc 2ebd d06f 233d
00000330: 763c 7b3d 419f 02bd 97ec 96bd 211d 89bd
00000340: 4abe 41bd f4c4 d7bc eb63 42bd 8ec3 4f3d
00000350: 009c 57bc 2b52 5f3d 5f64 17bd 288e 67bd
00000360: f066 403c 6e63 363d 42ca fabb c693 4bbd
00000370: ca30 093b 5052 2cbd 1709 183e 5eb3 b2bd
00000380: d56c 5abc fa2c 63bd 37be c5bd 2fee 40bd
00000390: 8ad7 c23d 8d5b ca3d f6c5 c23d f036 223d
000003a0: 1157 2c3d 570c 9cbc 9743 033d 24b5 d6bd
000003b0: e99a e33c d012 b3bd 1401 ffbc 262d c1bc
000003c0: 4804 05bb 0109 e13d 7190 bcbc fcb1 e2bd
000003d0: d080 39bc ac8d 28bd 0239 41bd 7ce5 c13d
000003e0: f8ad bfbd 8f7c c53d bb77 cd3d df89 d0bc
000003f0: 3825 b7bb 20cc 9c39 4104 033d 8cfb 4fbd

sequential_1/lstm_1/while/lstm_cell_1/add_1/ReadVariableOp f4 [256]
0.0 0.0 0.0 0.0 0.0 0.0 0.0 0.0
0.0 0.0 0.0 0.0 0.0 0.0 0.0 0.0
0.0 0.0 0.0 0.0 0.0 0.0 0.0 0.0
0.0 0.0 0.0 0.0 0.0 0.0 0.0 0.0
0.0 0.0 0.0 0.0 0.0 0.0 0.0 0.0
0.0 0.0 0.0 0.0 0.0 0.0 0.0 0.0
0.0 0.0 0.0 0.0 0.0 0.0 0.0 0.0
0.0 -0.0051496592 0.0 0.0 0.0 0.0 0.0 0.0
1.0 1.0 1.0 1.0 1.0 1.0 1.0 1.0
1.0 1.0 1.0 1.0 1.0 1.0 1.0 1.0
1.0 1.0 1.0 1.0 1.0 1.0 1.0 1.0
1.0 1.0 1.0 1.0 1.0 1.0 1.0 1.0
1.0 1.0 1.0 1.0 1.0 1.0 1.0 1.0
1.0 1.0 1.0 1.0 1.0 1.0 1.0 1.0
1.0 1.0 1.0 1.0 1.0 1.0 1.0 1.0
1.0 1.0 1.0 1.0 1.0 1.0 1.0 1.0
0.0 0.0 -0.03584824 0.0 0.0 0.0 0.0 0.0
0.0 0.0 0.0 0.006597303 0.0 0.0 0.0 0.0
0.0 0.0 0.0 0.0 0.0 0.0 0.0 0.0
0.0 -0.03224228 0.0 -0.009743608 0.0 0.0 0.0 -0.014043528
-0.020805184 0.026809039 0.0 -0.015506036 -0.021686483 -0.0095730815 -0.025662918 0.0
0.0 -0.037152678 0.017738597 0.0 0.0 -0.04493367 0.0 0.0
0.0 -0.00015934813 0.0 0.0 0.0 -0.005258422 0.0 0.0
0.0 -0.019351132 0.0 0.0 0.0 0.0 0.0 0.0
0.0 0.0 0.0 0.0 0.0 0.0 0.0 0.0
0.0 0.0 0.0 0.0 0.0 0.0 0.0 0.0
0.0 0.0 0.0 0.0 0.0 0.0 0.0 0.0
0.0 0.0 0.0 0.0 0.0 0.0 0.0 0.0
0.0 0.0 0.0 0.0 0.0 0.0 0.0 0.0
0.0 -1.5797276e-25 0.0 0.0 0.0 0.0 0.0 0.0
0.0 0.0 0.0 0.0 0.0 0.0 0.0 0.0
0.0 0.0 0.0 0.0 0.0 0.0 0.0 0.0
00000000: 0000 0000 0000 0000 0000 0000 0000 0000
00000010: 0000 0000 0000 0000 0000 0000 0000 0000
00000020: 0000 0000 0000 0000 0000 0000 0000 0000
00000030: 0000 0000 0000 0000 0000 0000 0000 0000
00000040: 0000 0000 0000 0000 0000 0000 0000 0000
00000050: 0000 0000 0000 0000 0000 0000 0000 0000
00000060: 0000 0000 0000 0000 0000 0000 0000 0000
00000070: 0000 0000 0000 0000 0000 0000 0000 0000
00000080: 0000 0000 0000 0000 0000 0000 0000 0000
00000090: 0000 0000 0000 0000 0000 0000 0000 0000
000000a0: 0000 0000 0000 0000 0000 0000 0000 0000
000000b0: 0000 0000 0000 0000 0000 0000 0000 0000
000000c0: 0000 0000 0000 0000 0000 0000 0000 0000
000000d0: 0000 0000 0000 0000 0000 0000 0000 0000
000000e0: 0000 0000 79be a8bb 0000 0000 0000 0000
000000f0: 0000 0000 0000 0000 0000 0000 0000 0000
00000100: 0000 803f 0000 803f 0000 803f 0000 803f
00000110: 0000 803f 0000 803f 0000 803f 0000 803f
00000120: 0000 803f 0000 803f 0000 803f 0000 803f
00000130: 0000 803f 0000 803f 0000 803f 0000 803f
00000140: 0000 803f 0000 803f 0000 803f 0000 803f
00000150: 0000 803f 0000 803f 0000 803f 0000 803f
00000160: 0000 803f 0000 803f 0000 803f 0000 803f
00000170: 0000 803f 0000 803f 0000 803f 0000 803f
00000180: 0000 803f 0000 803f 0000 803f 0000 803f
00000190: 0000 803f 0000 803f 0000 803f 0000 803f
000001a0: 0000 803f 0000 803f 0000 803f 0000 803f
000001b0: 0000 803f 0000 803f 0000 803f 0000 803f
000001c0: 0000 803f 0000 803f 0000 803f 0000 803f
000001d0: 0000 803f 0000 803f 0000 803f 0000 803f
000001e0: 0000 803f 0000 803f 0000 803f 0000 803f
000001f0: 0000 803f 0000 803f 0000 803f 0000 803f
00000200: 0000 0000 0000 0000 9bd5 12bd 0000 0000
00000210: 0000 0000 0000 0000 0000 0000 0000 0000
00000220: 0000 0000 0000 0000 0000 0000 302e d83b
00000230: 0000 0000 0000 0000 0000 0000 0000 0000
00000240: 0000 0000 0000 0000 0000 0000 0000 0000
00000250: 0000 0000 0000 0000 0000 0000 0000 0000
00000260: 0000 0000 7b10 04bd 0000 0000 a7a3 1fbc
00000270: 0000 0000 0000 0000 0000 0000 d316 66bc
00000280: a26f aabc a19e db3c 0000 0000 070d 7ebc
00000290: daa7 b1bc 6ad8 1cbc 0a3b d2bc 0000 0000
000002a0: 0000 0000 682d 18bd 8950 913c 0000 0000
000002b0: 0000 0000 5e0c 38bd 0000 0000 0000 0000
000002c0: 0000 0000 b016 27b9 0000 0000 0000 0000
000002d0: 0000 0000 d74e acbb 0000 0000 0000 0000
000002e0: 0000 0000 4486 9ebc 0000 0000 0000 0000
000002f0: 0000 0000 0000 0000 0000 0000 0000 0000
00000300: 0000 0000 0000 0000 0000 0000 0000 0000
00000310: 0000 0000 0000 0000 0000 0000 0000 0000
00000320: 0000 0000 0000 0000 0000 0000 0000 0000
00000330: 0000 0000 0000 0000 0000 0000 0000 0000
00000340: 0000 0000 0000 0000 0000 0000 0000 0000
00000350: 0000 0000 0000 0000 0000 0000 0000 0000
00000360: 0000 0000 0000 0000 0000 0000 0000 0000
00000370: 0000 0000 0000 0000 0000 0000 0000 0000
00000380: 0000 0000 0000 0000 0000 0000 0000 0000
00000390: 0000 0000 0000 0000 0000 0000 0000 0000
000003a0: 0000 0000 918f 4396 0000 0000 0000 0000
000003b0: 0000 0000 0000 0000 0000 0000 0000 0000
000003c0: 0000 0000 0000 0000 0000 0000 0000 0000
000003d0: 0000 0000 0000 0000 0000 0000 0000 0000
000003e0: 0000 0000 0000 0000 0000 0000 0000 0000
000003f0: 0000 0000 0000 0000 0000 0000 0000 0000
