rofl-oracle/model.tflite (tflite, 91332 bytes, 6 tensors)

arith.constant3 f4 [1, 32]
00000000: fd5c c6be f963 6e3e 9282 bf3d 81ad 9e3e
00000010: 7956 4c3e b232 b43e cdb0 c2be 627c d0bd
00000020: 2787 9b3d e294 0dbe e0ec b6bd 1fc9 d73e
00000030: 2eb6 f5ba c400 b6be 8637 793e d218 df3e
00000040: 96ea b13e d434 c63d 4839 9abe f0b7 56be
00000050: 8696 a9be d7cf 92be 6580 adbe 83f9 983e
00000060: 0c3c 02be ab27 183e fc90 913e db9c 773e
00000070: 2da7 693c ff7d 183e 9a59 2fbe 2932 84be
-0.3874282 0.23280324 0.09351076 0.30991748 0.19954862 0.35194927 -0.38025513 -0.10179974
0.07594138 -0.13826326 -0.08931899 0.4214563 -0.001874631 -0.3554746 0.24337587 0.43573624
0.34749287 0.09678045 -0.30121827 -0.20968604 -0.33122653 -0.28674194 -0.3388702 0.29877862
-0.12718219 0.14858882 0.28430927 0.2418093 0.014261049 0.14891814 -0.17124024 -0.2581952

arith.constant4 f4 [32, 64]
00000000: b0cb cd3d 184b 05be a001 6b3e 3380 233e
00000010: c885 853d 78db 5bbe f17e 523e c0c0 b33d
00000020: f5a4 77be 30e7 603d 008b b6bb aaea 29be
00000030: b86b 2a3e 408a 183d 2fee 83be c00a 293c
00000040: 309f ad3d 581e 6d3e 68e2 6dbe d849 9ebd
00000050: d482 50be c8e3 57be 00cb 69be e88a e23d
00000060: a06e cb3d 7811 91bd 2ce8 3bbe dc30 693e
00000070: 9828 5cbe d063 5ebe 7425 1ebe 084e 763e
00000080: c05e 173c 809e 18be e0ee dc3c 28f8 1c3e
00000090: db7b 803d e0a3 9f3d fb98 11bd f40f 1cbe
000000a0: 9871 7bbe d851 f4bd 9068 693e d8f8 a5bd
000000b0: 5040 d73d da78 78be 30af 583e e081 75be
000000c0: b1db e6bd f428 4cbd c670 7c3e dc8c 293e
000000d0: 7c8e dbbd f8c8 1f3e 89fc d1bd 98a8 24be
000000e0: 9465 2abe a08b 713e e07a fdbc 50f3 5dbd
000000f0: 68b4 e63d 2814 2ebe 7c5f 15be 0c56 7b3e
00000100: 5cf4 7ebe 7c78 7abe 6899 343e 3a48 093e
00000110: 49d4 75be fcb9 693e 9ee2 f6bd dc73 2a3e
00000120: 7add ecbd 703a 4ebd 3a3b b33d 5967 80bd
00000130: 402b adbd 94ff 5e3e be2d b7bd 60a1 1cbd
00000140: c03e fc3d e084 03bd 2cee 583e b037 76bd
00000150: e0de b7bc 6050 973c 9c5c 753e 68ae 0ebe
00000160: 8c3b 493e 000b efbb 8c05 343e 80bb 30be
00000170: 08a9 f5bd a693 b3bd 3083 fe3d 207c 033d
00000180: f9a4 f03c 00e1 243b c048 86bd d85f 463e
00000190: 2ffb 60bd 580d 85bd 15a3 a13c 3c77 69be
000001a0: 90ad 10bd 0eef 823e 9882 033e bceb 62be
000001b0: 98c8 2a3e f478 2dbe c036 e13c 5c73 3abe
000001c0: 6063 e4bc c588 1b3e 8001 3e3d b035 b43d
000001d0: 01ba 253d 441e 12be 5e75 1fbd 38da 15be
000001e0: a048 95bd e855 27be c09a f13d 18fd 9f3d
000001f0: 8bf3 0cbe 0057 903c b426 72be 10dd 673d
00000200: 7825 3d3e c036 1c3c 50d3 b5bd 63bd e7bc
00000210: 8675 1ebe 8c2c 18be 3e2b 1b3e c021 55bd
00000220: 7194 1fbe 831a 74be 3b65 133d 8142 0dbc
00000230: 10fe 57be b877 87bd 8ddf 44be 40d5 35bd
00000240: 68d4 56be 385c 683e 406d dcbd 702b e9bd
00000250: 2c76 27be d88e 09be 00c1 bd3d 8050 423d
00000260: b0d0 183d e0fd d2bd c028 1a3c 600d 2cbe
00000270: 801a d5bd 53ff a5bd 4092 8abc 40b7 483c
00000280: 8863 75be 9832 313e d03b 38bd 7449 05be
00000290: 1bab 603e 7012 7cbe 223c c83d 14b8 2dbe
000002a0: acd2 05be 5eac 073e 38b3 c3bd 2042 2b3d
000002b0: 1000 743e a2af 89bd 9077 413d 7802 d13d
000002c0: e905 333e 5561 a83d ba35 b2bc 4013 3fbd
000002d0: 53a9 0b3e b0d3 183d c0c0 a7bd bc3d 563e
000002e0: 68c1 7cbe f0fd 7d3d 9042 5b3d dc36 283e
000002f0: 3fe7 73be 4091 85bd 3b7b 073e bc99 0abe
00000300: 5489 74be 2829 9b3d 3049 813d ee40 b7bd
00000310: f8d3 4abe f05d 3abe 951b fd3d a0b0 77bd
00000320: 0310 6c3e 6305 643d 9447 0bbe 3f92 fc3d
00000330: 78d6 cf3d a800 b13d 6403 ccbd a8fa bebd
00000340: ac36 353e c81a 973d b095 103d 04d9 053e
00000350: 34f1 4dbe 4c58 133e d8c1 b9bd e044 f1bd
00000360: 2c15 1fbe 5084 453d 78f5 4d3e d0f6 153d
00000370: 00a7 bcbb fb42 52be 1ccf 03be fc38 173e
00000380: dcd8 1bbe 307f 703e f49d 4e3e 8816 233e
00000390: 551d d1bd 4885 0abe 87c9 183c 24ee 5a3e
000003a0: 7065 9cbd db3e c4bc 68ea 6e3e e484 243e
000003b0: a08a b53c 32e8 153d c839 e03d 24e8 09be
000003c0: 722f 5fbe 4394 413e 08ef 253e 583b ddbd
000003d0: 61e9 563e 00e9 253e 30e6 ccbd 6cfd 07be
000003e0: 5877 cfbd 508f dabd 6094 b83d 08fe e9bd
000003f0: e122 8e3c 3c05 1c3e 942c 393b 7cb2 183e
0.10048616 -0.13016927 0.22949839 0.15966873 0.065196574 -0.2147044 0.20556237 0.087769985
-0.2418402 0.054907978 -0.0055707693 -0.16593423 0.16642654 0.03724122 -0.25767657 0.010317504
0.08477628 0.23156106 -0.23230898 -0.07728928 -0.20362407 -0.21082985 -0.22831345 0.110616505
0.099332094 -0.0708341 -0.18350285 0.22772545 -0.2149986 -0.21717763 -0.15443975 0.24053204
0.009238899 -0.14904213 0.026969373 0.15329039 0.062736236 0.077949286 -0.035546284 -0.1524046
-0.24555051 -0.11929673 0.22793794 -0.08104104 0.105103135 -0.24264851 0.21160579 -0.23975325
-0.112723716 -0.049843743 0.24652395 0.1655764 -0.10720536 0.15604007 -0.102532454 -0.16079938
-0.16640311 0.23588419 -0.03094238 -0.05418712 0.112648785 -0.16999876 -0.14587206 0.24544543
-0.24897903 -0.24460024 0.17636645 0.13406458 -0.24006762 0.22824854 -0.120549425 0.1664576
-0.11565681 -0.0503487 0.08751531 -0.06269712 -0.08455515 0.21777183 -0.089442715 -0.038239837
0.12316656 -0.03210914 0.21184605 -0.0601117 -0.022445142 0.018470943 0.23961109 -0.13933718
0.19651622 -0.0072950125 0.17580241 -0.17259026 -0.11995131 -0.08768396 0.12427366 0.032100797
0.02937554 0.0025158525 -0.06556845 0.19372499 -0.054927047 -0.06496686 0.019731084 -0.2279939
-0.035321772 0.2557301 0.12842786 -0.22160238 0.16678083 -0.16940671 0.027491927 -0.18208069
-0.027879417 0.15188892 0.04638815 0.087993026 0.04046059 -0.14269358 -0.03893029 -0.14634025
-0.07289243 -0.16341364 0.11797094 0.07811946 -0.1376478 0.01761961 -0.23647577 0.056607306
0.18471324 0.009534538 -0.08878195 -0.028288549 -0.15474519 -0.14860743 0.15153214 -0.05203414
-0.1558397 -0.23838238 0.035985213 -0.008621813 -0.21093011 -0.066146314 -0.19225903 -0.044392824
-0.20979464 0.22691429 -0.10763025 -0.11385238 -0.16353673 -0.13433397 0.092653275 0.047440052
0.037308395 -0.10302329 0.00940913 -0.16801977 -0.10405445 -0.0810534 -0.01691544 0.012250721
-0.2396375 0.17304456 -0.044978917 -0.13016301 0.21940272 -0.24616408 0.097770944 -0.16964751
-0.13068646 0.13249347 -0.09555668 0.04181111 0.23828149 -0.067229524 0.047233164 0.10205549
0.17482723 0.082216896 -0.021754134 -0.046649218 0.13638811 0.037311256 -0.08191061 0.20921987
-0.24683154 0.06200975 0.053530276 0.16427177 -0.23818682 -0.06521845 0.13230602 -0.13535208
-0.23880512 0.07576209 0.063127875 -0.08947931 -0.19807422 -0.18199897 0.123587765 -0.060471177
0.23052983 0.0556692 -0.13601524 0.12332582 0.101483285 0.08642703 -0.09961584 -0.09325153
0.17696637 0.07378155 0.035299003 0.13071066 -0.20111543 0.14389151 -0.09070176 -0.11780715
-0.1553542 0.048221886 0.2011317 0.036612332 -0.0057572126 -0.20533364 -0.12871975 0.14767832
-0.15219444 0.23486018 0.20177442 0.15926564 -0.10210673 -0.13527405 0.009325392 0.21379906
-0.07636535 -0.023955753 0.23331606 0.16066319 0.022160828 0.03659839 0.10948521 -0.13467461
-0.21795443 0.18904214 0.16204464 -0.108023345 0.20987464 0.16202164 -0.10004842 -0.13280267
-0.10130185 -0.10671866 0.09012675 -0.11425406 0.017350616 0.15236372 0.002825533 0.14911836

arith.constant5 f4 [32]
00000000: 9c5f c7bc a508 d73c 0167 c83c 7a60 983c
00000010: d25b c73c 0000 0000 f926 cebc 4f3e cfb9
00000020: e54d c63c cddf c7bc 6c1a ccbc a08a 423c
00000030: 2572 1ebc 6014 cf3c 4e1f c73c b148 e13c
00000040: 090c d13c c3e3 013c 0d89 07bd 292a 22bd
00000050: 784f c8bc c827 2fbc 2d8f c7bc 7819 a93b
00000060: ae17 c9bc c65b c73c c982 693c a86a ee3c
00000070: 7dd0 a3bc e80d 003d 0000 0000 2154 e3bc
-0.024337582 0.02624924 0.024463179 0.018600691 0.024335776 0.0 -0.025165068 -0.0003952854
0.024207065 -0.024398709 -0.024914943 0.011873871 -0.009670769 0.02527827 0.02430692 0.027500482
0.025518434 0.007927838 -0.033089686 -0.03959099 -0.024451956 -0.010690637 -0.024360264 0.005160507
-0.024547424 0.024335753 0.014252373 0.029103592 -0.019996876 0.031263262 0.0 -0.027750077

arith.constant19 f4 [256, 5]
00000000: 440c 02be a847 043e 5a68 903d 6410 0cbe
00000010: fe6b 003e 245c a7bd f2b8 b6bd 602c 9e3c
00000020: 237c 8ebd b01a 20bd d2cd 20bd f69b bfbd
00000030: 9f99 f1bd c071 533d 6498 88bd b6f7 aabd
00000040: ac72 153d 8830 dd3d e04e 05bc 121b 15bd
00000050: 0014 433c e8b6 77bd 589d bbbd 4605 cdbd
00000060: a6e8 073e eac9 a9bd 304c 72bd 1095 a53c
00000070: 1caa 7c3d b88f 493d fa0b 9abd e050 913d
00000080: 5cb3 23bd 8cc1 34bd a010 de3c 464b 9f3d
00000090: 28e1 e03d 58cd c13c b011 04be 4c70 0b3e
000000a0: 50a8 ac3c 4ecf 043e b3b1 a4bd 032c a8bd
000000b0: 08d3 0fbe 9535 09be e230 b0bd ae8e 133e
000000c0: 4e77 113e 846f 9ebd dc97 db3d 77c6 8cbd
000000d0: 40d7 103e 647f 993d 0277 003e f064 5fbc
000000e0: 04fd de3d 30fe d6bd f90a 15be f018 623d
000000f0: 243a d83d 48b5 d73d 66a1 c3bd 569b 8b3d
00000100: a27d 193e 3d02 cbbd 56a2 133e 702c b63c
00000110: 5ee3 7fbd 3c04 b63d 3032 6cbc 4871 c53d
00000120: 5081 b2bc 044e 343d dcc5 27bd 9261 0e3e
00000130: a06b ce3b e068 813c 5b00 05be 5cee ff3d
00000140: 4848 10be 6d18 b1bd e060 8c3b f577 16be
00000150: 2405 953d 7a17 943d 7811 963d 3a5b 993d
00000160: 8c33 d2bd 2398 d9bd d2a0 19be a854 cfbc
00000170: 9c75 e13d c0d7 53bc e9a2 0abe 589b d43c
00000180: 8b9e 8fbd 042a d73d 08ec 7d3d 70e9 64bc
00000190: 9837 b63d 2055 9a3c 60b2 71bd d08f 933c
000001a0: 98d5 a83c 96c4 2dbd e885 c7bc 1c9f e9bc
000001b0: 2031 a93b 2fad 94bd b0c4 173e 6cd1 573d
000001c0: 2a39 dfbd bc2e 13be 9afa 0abe b850 193e
000001d0: b0f7 d33c 60cb 0a3d 3ef7 16be 1800 b13d
000001e0: a4c5 aabd bc57 a43d e094 f43d e41d ee3d
000001f0: d8be 8e3c f64b c5bd 3ed1 083e c3b4 f5bd
00000200: 808e 15bb 3c14 043d 76d1 7dbd 386b c73c
00000210: f338 19be 583c a43d 7033 91bc 6e17 e3bd
00000220: 80a9 5c3c 9489 26bd d0d0 e43d 1205 99bd
00000230: 589e 13be ae83 1a3e 4c94 7bbd 42f4 c1bd
00000240: 6054 36bc d857 b03c 5a20 9abd 40ad e03b
00000250: c0a6 0abc 9075 543d ba00 a83d 50b0 5f3c
00000260: a0d0 423d 8453 ec3d 8d3e 1bbe a0c7 8c3d
00000270: e89f 8bbd 70e7 f33d c423 653d 66eb 63bd
00000280: 0e37 173e 800b 92bd 0d51 9fbd 30a6 733d
00000290: bccb 333d 3435 49bd 6009 d8bb f8f6 0e3d
000002a0: 748f ac3d 0001 563c 906e cebc 802a 98bc
000002b0: c0eb 30bb 1027 c4bc 2425 e2bc 42bf 8f3d
000002c0: c01a 2bbc b037 a2bc f4d0 613d 38d1 913d
000002d0: 6047 053e 62ef 8ebd b8cf 16be c860 183e
000002e0: 50b0 c53d 9413 873d e1cb 15be 4058 6b3b
000002f0: edf8 b2bd 8965 babd 4ebe 36bd e896 c2bd
00000300: 856b 05be ce9c a7bd b194 97bd d269 c63d
00000310: 8862 abbc 30cf 36bc ec64 98bd 54e6 643d
00000320: fcc1 c03d 3723 9ebd b084 ec3d ec6d 473d
00000330: 4010 87bb f830 ec3d 043d cb3d d491 8b3d
00000340: 10b5 f7bd 501c 5d3c 983a b23c 88d2 f23c
00000350: c6c2 9ebd ec9f 533d 6046 d73d 31e4 08be
00000360: 1026 e5bd 8026 093e c000 053c 43ad 11be
00000370: 999e aebd 9662 07be 54d9 223d 2cd9 88bd
00000380: 38cd 833d b822 1abe 3c13 d13d 441b 67bd
00000390: 008a 943a 40f3 293d 1675 e2bd 78ea 61bd
000003a0: 0e4e e7bd c04a 873d 96d8 0cbd 1282 a2bd
000003b0: 623b b63d 6805 a0bc 9890 033e d6a1 4dbd
000003c0: 68e9 aa3c 405a e33b 6cf4 183e 34b8 933d
000003d0: 2095 f13d 60ba acbb b29b 1ebd f894 5a3d
000003e0: a065 ea3d c8de 823d 6a9b 8f3d 70a8 ca3c
000003f0: 5c30 fbbd d406 fabd ea85 3bbd fcf0 a6bd
-0.12699991 0.1291796 0.070511535 -0.13678128 0.12541196 -0.08171871 -0.08921994 0.019308269
-0.06957271 -0.03908795 -0.039258786 -0.09355919 -0.11796879 0.051622152 -0.06669691 -0.08348028
0.036486313 0.10800272 -0.008136481 -0.03640277 0.011906624 -0.060477167 -0.0916087 -0.100107715
0.13272342 -0.08290465 -0.05915469 0.02021268 0.061685666 0.049209327 -0.075218156 0.07095504
-0.039965972 -0.044129893 0.027107537 0.07778029 0.10980445 0.023657486 -0.12897372 0.13617057
0.021076351 0.12969705 -0.08041706 -0.082115196 -0.14045346 -0.13399346 -0.08603074 0.14409897
0.14205667 -0.07736114 0.10722324 -0.06873792 0.14144611 0.07495001 0.12545398 -0.013634905
0.10888103 -0.10497701 -0.14554967 0.055199564 0.105579644 0.105326235 -0.09552269 0.06816737
0.14989331 -0.09912536 0.14417395 0.022237986 -0.062472694 0.088875264 -0.0144162625 0.09640747
-0.021790177 0.044019714 -0.040960178 0.13904408 0.006299451 0.015797079 -0.12988417 0.12496635
-0.14090073 -0.08647237 0.0042840093 -0.14694197 0.07276371 0.0723104 0.07327551 0.07488103
-0.10263738 -0.10624721 -0.15002754 -0.025308922 0.1100876 -0.012929857 -0.13538708 0.02595298
-0.070126615 0.10506061 0.061992675 -0.013971671 0.088973224 0.018839419 -0.059008002 0.018012911
0.020609662 -0.042423807 -0.024355844 -0.028518252 0.005163327 -0.07259595 0.14821124 0.052689955
-0.10899575 -0.14373296 -0.1357216 0.14972198 0.025874943 0.03388536 -0.14742753 0.08642596
-0.08338478 0.080245465 0.11942458 0.11626795 0.017424986 -0.09633629 0.1336107 -0.11997368
-0.0022820532 0.03224586 -0.061967336 0.024343118 -0.1496313 0.08019322 -0.017724723 -0.11088453
0.013468146 -0.04065855 0.1117264 -0.0747167 -0.14415872 0.15089294 -0.061420724 -0.094704166
-0.011128515 0.021526262 -0.07525702 0.0068565905 -0.008462608 0.05186993 0.082032636 0.013652876
0.04756224 0.11539367 -0.1516058 0.06874013 -0.06817609 0.119093776 0.055942312 -0.055644415
0.14767095 -0.071311 -0.07779131 0.05948466 0.043895468 -0.049123004 -0.0065929145 0.034903497
0.08425799 0.013061762 -0.025199205 -0.018574953 -0.0026995987 -0.023944408 -0.0276056 0.070189014
-0.010443389 -0.019801944 0.055130914 0.071199834 0.13015509 -0.069792524 -0.14727676 0.14880669
0.096527696 0.06595531 -0.14628555 0.0035910755 -0.08738885 -0.091013975 -0.044615082 -0.09501439
-0.13029297 -0.08184205 -0.074014075 0.096881524 -0.020921007 -0.011157796 -0.07441124 0.05588372
0.094119996 -0.077215604 0.11548746 0.048688814 -0.00412181 0.115327775 0.09923747 0.06814924
-0.12095082 0.01349552 0.021756455 0.029641405 -0.07751994 0.051666185 0.1051147 -0.13368298
-0.111889005 0.13393593 0.008117855 -0.1422625 -0.08526344 -0.13221201 0.03975804 -0.06682047
0.06435627 -0.15052307 0.10208747 -0.056422487 0.0011332631 0.041491747 -0.110574886 -0.055155247
-0.112941846 0.06606054 -0.03438624 -0.07934965 0.08898045 -0.019533828 0.12848127 -0.050203167
0.02086325 0.006938249 0.1493699 0.07212868 0.117960215 -0.005271241 -0.0387227 0.053364724
0.11445165 0.063901484 0.07012065 0.02473852 -0.12265083 -0.122083336 -0.045782007 -0.08151433

arith.constant20 f4 [256, 64]
00000000: e044 04bd 0d7d bd3d 42c4 c6bd 91bc bb3d
00000010: 12bb 11bd eafd a53d c090 cd3c d036 b83d
00000020: e621 483c 7485 8e3c 524a 373d 8202 f73c
00000030: 38d6 c43c 833a 353d d17c 523d 460a 39bc
00000040: 70fa 74bc c0eb 23bd 71ab 0abd 8201 c9bc
00000050: a8dd 243c 1340 60bd dc77 263d b836 5ebd
00000060: f8c2 063e e830 e4bc 19f6 173d f2cc 403d
00000070: 782a ac3d 269a 01bd 7583 40bd 3952 bc3d
00000080: f706 063c f59c d43d 7b1d a2bd 81a7 e7bc
00000090: 55dd d7bc 0465 bcbb b318 313d 1258 08bd
000000a0: c0a7 7d39 813d 5ebd d4fb 9dbd 599c 81bd
000000b0: f457 76bc 8a2d a33d 4cb7 4c3a 43e7 163d
000000c0: 2ffb f5bc 3b77 10be 2b60 1fbd 2e89 513d
000000d0: 0467 0c3e b0ec 9dbc 9203 b43c f263 57bb
000000e0: 28ef 50bc a1d2 2cbd 60c9 483d a267 8b3c
000000f0: bea2 4abd 7eed 68bd 1ad0 cd3c 1cad a13d
00000100: b549 c9bd b090 993d dcc2 f43c cee1 85bc
00000110: 2071 95bc f1c5 54bd aae1 f53b e4c2 34bd
00000120: ecd7 0abd de1b 143d e344 083c c854 e53d
00000130: 0ff4 b43d 3f51 5b3d 286b c23d 26a3 37bd
00000140: a56f 13bd fb2c 9d3d 50ad e7bd cb5a b2bd
00000150: 58f2 1e3c be8d 8fbd 3117 f0bd 6913 75bd
00000160: b386 373c 8439 8c3c c97b cf3d b9a6 bb3d
00000170: e54a efbc 1be3 a9bd 67f9 2ebd ff09 9ebc
00000180: fff1 acbd 29af c6bd 2cec 19be 342d c43c
00000190: 0c90 b13d cf77 3dbc 0fff 8b3d 97b2 b93d
000001a0: cbc9 de3b c491 603c c7b7 633c 6241 d63b
000001b0: da00 d8bc e075 1b3d 698e ae3d 086a 143d
000001c0: 7cc5 c8bc 142b 743d 1a9b 1b3d a4cd aa3d
000001d0: 254e c4bd 4822 e5bd ad21 ac3d c6ab 903d
000001e0: b0b8 c5b8 fa5f e6bc 8008 ee3c bc17 b6bd
000001f0: a30d ccbc 3b69 00bd 67fe af3c 3444 80bd
00000200: 3f48 883b 05e1 4cbd 00ea f8bb 0a9a 143d
00000210: 21c0 a2ba c74a 18bd c7ba 193d f06c 88bd
00000220: 63b2 313d 26d4 c5bd b3ac a2bd 3f03 8a3c
00000230: f071 a0bc 096c 173c c555 e93d 1697 26bd
00000240: 858d a93d 93f5 b8bd aba8 1c3d 8700 8d3d
00000250: 1087 b5bc b5f9 1bbc 292d b6bd dce3 973d
00000260: 623f a53d de38 4c3c 1e00 7b3c 9aee ba3d
00000270: 8b79 cbbd 7fad ae3c 0cf0 56bc 0c68 2a3d
00000280: 3276 afbc c03f 6d3d e8cb 32bc 4475 b23d
00000290: 0b4f 41bd cb6a 49bd 1f32 c7bc 6caa af3d
000002a0: 9a8f 85bd 603a 163d 43f1 db3c e8b2 ba3d
000002b0: 0b45 d6bc faff 08be 4a6a 00be 8eb8 8e3d
000002c0: 44ee 7a3c d81d 0c3c ecb3 b43c ff71 f4bb
000002d0: 5c78 22bd 091b cebc 52ef 83bc 36a1 30bc
000002e0: b7ed 883d a176 27bd b8f2 67bd d9cd ad3d
000002f0: 8fcf 8dbd d275 5abd 5f7a 363d dcf4 be3b
00000300: a7e1 893d da02 3c3c f877 0ebd 8064 e63c
00000310: f212 09bd a174 37bc 33fe f33d c669 25bc
00000320: 8a85 84bd 1d6f bb3d 4038 653b 911e ce3c
00000330: ba54 14bd 64a5 3d3d 70a7 89bd d68e 58bc
00000340: a523 153e 4088 69bd 144a d5bd 2c5c 06be
00000350: 24b6 763d f648 013d 0591 a63d 1d09 dc3d
00000360: 0213 c7bb ac45 d6bc 29de 6b3c 95b9 4bbd
00000370: c358 003e 837f 663d dd74 9cbd 19ab 693d
00000380: 35eb e2bd 0afa 943d 8bb9 b93d 7b03 c9bb
00000390: 1fd9 c83c 0ab7 17bc e0d6 3d3d 629c af3c
000003a0: b2c6 05bc f9ab ce3d 0332 96bc f4fa 03bd
000003b0: 4b53 b03d 3062 cf3d 2b22 78bd a7a6 f9bc
000003c0: 8460 ab3d ac41 b3bd 3d2a 933d be01 dc3d
000003d0: c00f c8bc c270 823d 203c 283c 8fa1 16bd
000003e0: d930 ce3d 233d 80bd 5e18 12bd 1f19 043e
000003f0: c3c2 3dbd 60fa 9cba 5a8d f7bb 1d75 11bd
-0.032292247 0.09252367 -0.09705402 0.091668256 -0.035578795 0.08105071 0.025093436 0.0899483
0.012215113 0.01739762 0.04474861 0.030152563 0.024027929 0.044245254 0.051388565 -0.011293953
-0.014952287 -0.04001975 -0.033854906 -0.024536852 0.010062613 -0.054748606 0.04064165 -0.054251403
0.13160312 -0.027855352 0.03709993 0.04707045 0.08406538 -0.031641148 -0.047000367 0.0919537
0.0081803715 0.103815 -0.07915779 -0.028278114 -0.026350657 -0.0057493467 0.043236446 -0.033287115
0.00024190452 -0.054257873 -0.07714048 -0.06328649 -0.015035618 0.0796767 0.0007809296 0.036841642
-0.030027 -0.14107983 -0.038910072 0.051156215 0.13711172 -0.0192779 0.021974359 -0.0032865969
-0.012752332 -0.04219306 0.04902017 0.01701719 -0.04947161 -0.056867115 0.025123645 0.07894346
-0.098285116 0.074983 0.029878072 -0.016343024 -0.018242419 -0.051946584 0.007503708 -0.044131175
-0.033897325 0.03615939 0.008317205 0.11197811 0.08835613 0.05354428 0.09493095 -0.044833325
-0.035995144 0.07674595 -0.113123536 -0.08708724 0.009701334 -0.07009457 -0.117231734 -0.059832964
0.011201548 0.01711727 0.10131032 0.09162659 -0.029210517 -0.0829527 -0.042718317 -0.019291876
-0.084445946 -0.09701378 -0.15031499 0.023947336 0.08670053 -0.011564209 0.06835758 0.090672664
0.006798958 0.013706628 0.013898796 0.006538556 -0.026367594 0.03795421 0.08523256 0.03623393
-0.02450823 0.059611395 0.037989713 0.08340004 -0.095852174 -0.11188179 0.08404861 0.07064013
-9.428093e-05 -0.028121937 0.029056787 -0.08891246 -0.024908846 -0.031350356 0.021483613 -0.06263009
0.004159003 -0.050019283 -0.0075962543 0.036279716 -0.0012416878 -0.03718069 0.03753164 -0.06661403
0.043383013 -0.09659605 -0.07943096 0.016847251 -0.01958558 0.009242066 0.11393312 -0.04067143
0.08278946 -0.090312146 0.03824679 0.06884866 -0.02215913 -0.009519984 -0.08895332 0.074165076
0.0806873 0.01246473 0.015319852 0.09127541 -0.09935292 0.021322964 -0.013118755 0.041603133
-0.021418665 0.057922125 -0.010912873 0.08713773 -0.047194522 -0.04917411 -0.024315892 0.08577427
-0.065215304 0.036676764 0.026848441 0.09116155 -0.02615597 -0.13378897 -0.12540546 0.06968795
0.015315596 0.008552037 0.02205845 -0.0074598785 -0.039665565 -0.025159376 -0.016105328 -0.010780623
0.066859655 -0.040884618 -0.05662796 0.08486528 -0.06924354 -0.05333502 0.044550296 0.0058275294
0.06732493 0.011475289 -0.03478238 0.028124094 -0.033465333 -0.01119724 0.11913719 -0.010096019
-0.06470783 0.091520526 0.0034976155 0.02516106 -0.036213614 0.046300307 -0.06721389 -0.0132176485
0.14564379 -0.057014704 -0.1041452 -0.13121098 0.060232297 0.03156372 0.08133129 0.10743926
-0.006075264 -0.026156269 0.014396229 -0.04973753 0.1253386 0.05627395 -0.076394774 0.057047937
-0.110800184 0.07274254 0.09068593 -0.006134448 0.024517594 -0.0092599485 0.0463475 0.021436874
-0.008165048 0.10091395 -0.018334394 -0.03222175 0.08609637 0.1012615 -0.06057946 -0.030474974
0.08368018 -0.0875276 0.07185791 0.1074252 -0.024421573 0.06369163 0.010268241 -0.036775168
0.10067911 -0.06261661 -0.03566777 0.12900208 -0.046328317 -0.0011976473 -0.007554692 -0.03551208

sequential_1/lstm_1/while/lstm_cell_1/add_1/ReadVariableOp f4 [256]
00000000: 0000 0000 0000 0000 0000 0000 0000 0000
00000010: 0000 0000 0000 0000 0000 0000 0000 0000
00000020: 0000 0000 0000 0000 0000 0000 0000 0000
00000030: 0000 0000 0000 0000 0000 0000 0000 0000
00000040: 0000 0000 0000 0000 0000 0000 0000 0000
00000050: 0000 0000 0000 0000 0000 0000 0000 0000
00000060: 0000 0000 0000 0000 0000 0000 0000 0000
00000070: 0000 0000 0000 0000 0000 0000 0000 0000
00000080: 0000 0000 0000 0000 0000 0000 0000 0000
00000090: 0000 0000 0000 0000 0000 0000 0000 0000
000000a0: 0000 0000 bab6 e720 0000 0000 0000 0000
000000b0: 0000 0000 0000 0000 0000 0000 0000 0000
000000c0: 0000 0000 0000 0000 0000 0000 0000 0000
000000d0: 0000 0000 0000 0000 0000 0000 0000 0000
000000e0: 0000 0000 0000 0000 0000 0000 0000 0000
000000f0: 0000 0000 0000 0000 0000 0000 0000 0000
00000100: 0000 803f 0000 803f 0000 803f 0000 803f
00000110: 0000 803f 0000 803f 0000 803f 0000 803f
00000120: 0000 803f 0000 803f 0000 803f 0000 803f
00000130: 0000 803f 0000 803f 0000 803f 0000 803f
00000140: 0000 803f 0000 803f 0000 803f 0000 803f
00000150: 0000 803f 0000 803f 0000 803f 0000 803f
00000160: 0000 803f 0000 803f 0000 803f 0000 803f
00000170: 0000 803f 0000 803f 0000 803f 0000 803f
00000180: 0000 803f 0000 803f 0000 803f 0000 803f
00000190: 0000 803f 0000 803f 0000 803f 0000 803f
000001a0: 0000 803f 0000 803f 0000 803f 0000 803f
000001b0: 0000 803f 0000 803f 0000 803f 0000 803f
000001c0: 0000 803f 0000 803f 0000 803f 0000 803f
000001d0: 0000 803f 0000 803f 0000 803f 0000 803f
000001e0: 0000 803f 0000 803f 0000 803f 0000 803f
000001f0: 0000 803f 0000 803f 0000 803f 0000 803f
00000200: 0000 0000 0000 0000 0000 0000 c9d8 b2bc
00000210: 4869 a1bc 0000 0000 5566 9c3c 0000 0000
00000220: e5a5 f9bc c021 aebb 692d b4b7 9b07 363c
00000230: 6c8f d1bb 0000 0000 c908 d1bc 0000 0000
00000240: 0000 0000 0000 0000 0000 0000 0000 0000
00000250: 0000 0000 0000 0000 0000 0000 0000 0000
00000260: 0000 0000 0000 0000 0000 0000 0000 0000
00000270: 0000 0000 3d65 ee3b 0000 0000 0000 0000
00000280: cb67 1c3c 0000 0000 4a18 d2bb 0000 0000
00000290: bb69 aebc 0000 0000 4598 e4bc 0000 0000
000002a0: 0000 0000 00e5 60bc 0000 0000 0000 0000
000002b0: 0000 0000 6b43 90bc 0000 0000 0000 0000
000002c0: 31a5 673c 4748 743b 79be 223c 0000 0000
000002d0: daed d93b 0000 0000 1b25 fabc 0000 0000
000002e0: 0000 0000 0000 0000 0000 0000 0000 0000
000002f0: f6b2 20ba 0000 0000 6f36 aebb 09bf 11bc
00000300: 0000 0000 0000 0000 0000 0000 0000 0000
00000310: 0000 0000 0000 0000 0000 0000 0000 0000
00000320: 0000 0000 0000 0000 0000 0000 0000 0000
00000330: 0000 0000 0000 0000 0000 0000 0000 0000
00000340: 0000 0000 0000 0000 0000 0000 0000 0000
00000350: 0000 0000 0000 0000 0000 0000 0000 0000
00000360: 0000 0000 0000 0000 0000 0000 0000 0000
00000370: 0000 0000 0000 0000 0000 0000 0000 0000
00000380: 0000 0000 0000 0000 0000 0000 0000 0000
00000390: 0000 0000 0000 0000 0000 0000 0000 0000
000003a0: 0000 0000 0000 0000 0000 0000 0000 0000
000003b0: 0000 0000 0000 0000 0000 0000 0000 0000
000003c0: 0000 0000 0000 0000 0000 0000 0000 0000
000003d0: 0000 0000 0000 0000 0000 0000 0000 0000
000003e0: 0000 0000 0000 0000 0000 0000 0000 0000
000003f0: 0000 0000 0000 0000 0000 0000 0000 0000
0.0 0.0 0.0 0.0 0.0 0.0 0.0 0.0
0.0 0.0 0.0 0.0 0.0 0.0 0.0 0.0
0.0 0.0 0.0 0.0 0.0 0.0 0.0 0.0
0.0 0.0 0.0 0.0 0.0 0.0 0.0 0.0
0.0 0.0 0.0 0.0 0.0 0.0 0.0 0.0
0.0 3.925384e-19 0.0 0.0 0.0 0.0 0.0 0.0
0.0 0.0 0.0 0.0 0.0 0.0 0.0 0.0
0.0 0.0 0.0 0.0 0.0 0.0 0.0 0.0
1.0 1.0 1.0 1.0 1.0 1.0 1.0 1.0
1.0 1.0 1.0 1.0 1.0 1.0 1.0 1.0
1.0 1.0 1.0 1.0 1.0 1.0 1.0 1.0
1.0 1.0 1.0 1.0 1.0 1.0 1.0 1.0
1.0 1.0 1.0 1.0 1.0 1.0 1.0 1.0
1.0 1.0 1.0 1.0 1.0 1.0 1.0 1.0
1.0 1.0 1.0 1.0 1.0 1.0 1.0 1.0
1.0 1.0 1.0 1.0 1.0 1.0 1.0 1.0
0.0 0.0 0.0 -0.021831887 -0.019703522 0.0 0.019091764 0.0
-0.030474612 -0.005314082 -2.1478818e-05 0.011110212 -0.006395271 0.0 -0.025516884 0.0
0.0 0.0 0.0 0.0 0.0 0.0 0.0 0.0
0.0 0.0 0.0 0.0 0.0 0.007275252 0.0 0.0
0.009546231 0.0 -0.006411587 0.0 -0.02129065 0.0 -0.027904639 0.0
0.0 -0.013726473 0.0 0.0 0.0 -0.017610272 0.0 0.0
0.014138506 0.0037274526 0.0099331075 0.0 0.0066506686 0.0 -0.030535271 0.0
0.0 0.0 0.0 0.0 -0.0006130183 0.0 -0.0053165476 -0.008895644
0.0 0.0 0.0 0.0 0.0 0.0 0.0 0.0
0.0 0.0 0.0 0.0 0.0 0.0 0.0 0.0
0.0 0.0 0.0 0.0 0.0 0.0 0.0 0.0
0.0 0.0 0.0 0.0 0.0 0.0 0.0 0.0
0.0 0.0 0.0 0.0 0.0 0.0 0.0 0.0
0.0 0.0 0.0 0.0 0.0 0.0 0.0 0.0
0.0 0.0 0.0 0.0 0.0 0.0 0.0 0.0
0.0 0.0 0.0 0.0 0.0 0.0 0.0 0.0
